…
uri":"https://localhost:8080/"},"id":"lXhKlDiVmHYJ","executionInfo":{"status":"ok","timestamp":1692329568812,"user_tz":-540,"elapsed":1025,"user":{"displayName":"이수현","userId":"14585987872054362818"}},"outputId":"f55b0506-3ef1-4e8b-f580-29e05e2ff758"},"execution_count":54,"outputs":[{"output_type":"stream","name":"stdout","text":["Model: \"sequential_2\"\n","_________________________________________________________________\n"," Layer (type)                Output Shape              Param #   \n","=================================================================\n"," flatten_2 (Flatten)         (None, 50176)             0         \n","                                                                 \n"," dense_11 (Dense)            (None, 800)               40141600  \n","                                                                 \n"," dense_12 (Dense)            (None, 500)               400500    \n","                                                                 \n"," dense_13 (Dense)            (None, 300)               150300    \n","                                                                 \n"," dense_14 (Dense)            (None, 200)               60200     \n","                                                                 \n"," dense_15 (Dense)            (None, 100)               20100     \n","                                                                 \n"," dense_16 (Dense)            (None, 50)                5050      \n","                                                                 \n"," dense_17 (Dense)            (None, 1)                 51        \n","                                                                 \n","=================================================================\n","Total params: 40,777,801\n","Trainable params: 40,777,801\n","Non-trainable params: 0\n","_________________________________________________________________\n"]}]},{"cell_type":"code","source":["model.compile(loss=\"binary_crossentropy\",\n","     
…
